…
      (train_transforms): RandomApply(
        (0): RandomResize(scale_y=(0.800000, 1.200000), scale_x=(0.800000, 1.200000))
        (1): RandomRotation(center=(63.500, 63.500), degrees=(-10.000, 10.000))
        (2): RandomShear(sy=0.020, sx=0.020)
        (3): RandomTranslate(dy=16, dx=16)
        (4): RandomErasing(H=128, W=128, prob=0.100000, h=16, w=16)
        (5): RandomChunkDrop(n_chunk=8, max_mask_len=256)
      )
      (test_transforms): Identity()
    )
    (2): ToEventDomain(H=128, W=128)
  )
  (classifier): ManualMLPNet(
    (embed_net): MLPEmbedding(
      (embed): Sequential(
        (0): Linear(in_features=3, out_features=16, bias=False)
        (1): LayerNorm((16,), eps=1e-05, elementwise_affine=True)
        (2): ReLU(inplace=True)
        (3): Linear(in_features=16, out_features=32, bias=False)
        (4): LayerNorm((32,), eps=1e-05, elementwise_affine=True)
        (5): ReLU(inplace=True)
        (6): Linear(in_features=32, out_features=64, bias=False)
        (7): LayerNorm((64,), eps=1e-05, elementwise_affine=True)
      )
    )
    (tpe): Conv(
      (conv): Sequential(
        (0): Conv1d(1, 16, kernel_size=(3,), stride=(1,), padding=(1,), bias=False)
        (1): Transpose()
        (2): LayerNorm((16,), eps=1e-05, elementwise_affine=True)
        (3): Transpose()
        (4): ReLU(inplace=True)
        (5): Conv1d(16, 32, kernel_size=(3,), stride=(1,), padding=(1,), groups=16, bias=False)
        (6): Transpose()
        (7): LayerNorm((32,), eps=1e-05, elementwise_affine=True)
        (8): Transpose()
        (9): ReLU(inplace=True)
        (10): Conv1d(32, 64, kernel_size=(3,), stride=(1,), padding=(1,), groups=32, bias=False)
        (11): Transpose()
        (12): LayerNorm((64,), eps=1e-05, elementwise_affine=True)
      )
    )
    (backbone_net): ModuleList(
      (0-3): 4 x GLAEncoder(
        (layers): ModuleList(
          (0): GLAEncoderLayer(
            (attention): GatedLinearAttention(
              (attention): BiForgettingAttention(
                (q_proj): Linear(in_features=64, out_features=64, bias=False)
                (k_proj): Linear(in_features=64, out_features=32, bias=False)
                (v_proj): Linear(in_features=64, out_features=32, bias=False)
                (f_proj): Linear(in_features=64, out_features=2, bias=True)
                (o_proj): Linear(in_features=128, out_features=64, bias=False)
                (q_norm): GroupNorm(2, 64, is_rms_norm=True, eps=1e-05)
                (k_norm): GroupNorm(1, 32, is_rms_norm=True, eps=1e-05)
              )
            )
            (norm1): LayerNorm((64,), eps=1e-05, elementwise_affine=True)
            (norm2): LayerNorm((64,), eps=1e-05, elementwise_affine=True)
            (ffn): FFN(
              (linear1): Linear(in_features=64, out_features=128, bias=False)
              (linear2): Linear(in_features=128, out_features=64, bias=False)
              (activation): ReLU()
              (dropout): Dropout(p=0.0, inplace=False)
            )
          )
        )
        (norm): LayerNorm((64,), eps=1e-05, elementwise_affine=True)
        (drop_path): ModuleList(
          (0): Identity()
        )
      )
    )
    (heads_dropout): Dropout(p=0.0, inplace=False)
    (heads): Linear(in_features=64, out_features=11, bias=True)
    (mixer): RandomCutmix()
  )
  (train_acc): MulticlassAccuracy()
  (valid_acc): MulticlassAccuracy()
  (test_acc): MulticlassAccuracy()
  (train_loss): MeanMetric()
  (valid_loss): MeanMetric()
  (test_loss): MeanMetric()
)
Initializing distributed: GLOBAL_RANK: 0, MEMBER: 1/4
[rank: 1] Seed set to 0
params in MB 0.5249748229980469
numactl --membind=0 --cpunodebind=0 --
…
