…
        (0): RandomResize(scale_y=(0.800000, 1.200000), scale_x=(0.800000, 1.200000))
        (1): RandomRotation(center=(63.500, 63.500), degrees=(-15.000, 15.000))
        (2): RandomShear(sy=0.050, sx=0.050)
        (3): RandomHorizontalFlip(W=128, prob=0.500)
        (4): RandomTranslate(dy=16, dx=16)
        (5): RandomErasing(H=128, W=128, prob=0.100000, h=16, w=16)
        (6): RandomChunkDrop(n_chunk=4, max_mask_len=128)
      )
      (test_transforms): Identity()
    )
    (2): ToEventDomain(H=128, W=128)
  )
  (classifier): ManualMLPNet(
    (embed_net): MLPEmbedding(
      (embed): Sequential(
        (0): Linear(in_features=3, out_features=48, bias=False)
        (1): LayerNorm((48,), eps=1e-05, elementwise_affine=True)
        (2): ReLU(inplace=True)
        (3): Linear(in_features=48, out_features=96, bias=False)
        (4): LayerNorm((96,), eps=1e-05, elementwise_affine=True)
        (5): ReLU(inplace=True)
        (6): Linear(in_features=96, out_features=192, bias=False)
        (7): LayerNorm((192,), eps=1e-05, elementwise_affine=True)
      )
    )
    (tpe): Conv(
      (conv): Sequential(
        (0): Conv1d(1, 48, kernel_size=(3,), stride=(1,), padding=(1,), bias=False)
        (1): Transpose()
        (2): LayerNorm((48,), eps=1e-05, elementwise_affine=True)
        (3): Transpose()
        (4): ReLU(inplace=True)
        (5): Conv1d(48, 96, kernel_size=(3,), stride=(1,), padding=(1,), groups=48, bias=False)
        (6): Transpose()
        (7): LayerNorm((96,), eps=1e-05, elementwise_affine=True)
        (8): Transpose()
        (9): ReLU(inplace=True)
        (10): Conv1d(96, 192, kernel_size=(3,), stride=(1,), padding=(1,), groups=96, bias=False)
        (11): Transpose()
        (12): LayerNorm((192,), eps=1e-05, elementwise_affine=True)
      )
    )
    (backbone_net): GLAEncoder(
      (layers): ModuleList(
        (0-15): 16 x GLAEncoderLayer(
          (attention): GatedLinearAttention(
            (attention): BiForgettingAttention(
              (q_proj): Linear(in_features=192, out_features=192, bias=False)
              (k_proj): Linear(in_features=192, out_features=96, bias=False)
              (v_proj): Linear(in_features=192, out_features=96, bias=False)
              (f_proj): Linear(in_features=192, out_features=6, bias=True)
              (o_proj): Linear(in_features=384, out_features=192, bias=False)
              (q_norm): GroupNorm(6, 192, is_rms_norm=True, eps=1e-05)
              (k_norm): GroupNorm(3, 96, is_rms_norm=True, eps=1e-05)
            )
          )
          (norm1): LayerNorm((192,), eps=1e-05, elementwise_affine=True)
          (norm2): LayerNorm((192,), eps=1e-05, elementwise_affine=True)
          (ffn): FFN(
            (linear1): Linear(in_features=192, out_features=384, bias=False)
            (linear2): Linear(in_features=384, out_features=192, bias=False)
            (activation): ReLU()
            (dropout): Dropout(p=0.0, inplace=False)
          )
        )
      )
      (norm): LayerNorm((192,), eps=1e-05, elementwise_affine=True)
      (drop_path): ModuleList(
        (0): DropPath(drop_prob=0.000)
        (1): DropPath(drop_prob=0.027)
        (2): DropPath(drop_prob=0.053)
        (3): DropPath(drop_prob=0.080)
        (4): DropPath(drop_prob=0.107)
        (5): DropPath(drop_prob=0.133)
        (6): DropPath(drop_prob=0.160)
        (7): DropPath(drop_prob=0.187)
        (8): DropPath(drop_prob=0.213)
        (9): DropPath(drop_prob=0.240)
        (10): DropPath(drop_prob=0.267)
        (11): DropPath(drop_prob=0.293)
        (12): DropPath(drop_prob=0.320)
        (13): DropPath(drop_prob=0.347)
        (14): DropPath(drop_prob=0.373)
        (15): DropPath(drop_prob=0.400)
      )
    )
    (heads_dropout): Dropout(p=0.0, inplace=False)
    (heads): Linear(in_features=192, out_features=100, bias=True)
    (mixer): TokenMix()
  )
  (train_acc): MulticlassAccuracy()
  (valid_acc): MulticlassAccuracy()
  (train_loss): MeanMetric()
  (valid_loss): MeanMetric()
)
Initializing distributed: GLOBAL_RANK: 0, MEMBER: 1/4
[rank: 2] Seed set to 0
[rank: 3] Seed set to 0
[rank: 1] Seed set to 0
TokenMix initialized with alpha=1.0, num_classes=100
TokenMix initialized with alpha=1.0, num_classes=100
…
